{
    "timestamp": "2024-03-28 13:12:01",
    "output_list": [
        "BFNN(\n  (batch_norm1): BatchNorm1d(128, eps=1e-05, momentum=0.1, affine=True, track_running_stats=True)\n  (flatten): Flatten(start_dim=1, end_dim=-1)\n  (batch_norm2): BatchNorm1d(128, eps=1e-05, momentum=0.1, affine=True, track_running_stats=True)\n  (dense1): Linear(in_features=128, out_features=256, bias=True)\n  (batch_norm3): BatchNorm1d(256, eps=1e-05, momentum=0.1, affine=True, track_running_stats=True)\n  (dense2): Linear(in_features=256, out_features=128, bias=True)\n  (dense3): Linear(in_features=128, out_features=64, bias=True)\n)",
        "BFTN(\n  (dropout_layer): Dropout(p=0.1, inplace=False)\n  (encoder_layer): TransformerEncoderLayer(\n    (self_attn): MultiheadAttention(\n      (out_proj): NonDynamicallyQuantizableLinear(in_features=64, out_features=64, bias=True)\n    )\n    (linear1): Linear(in_features=64, out_features=2048, bias=True)\n    (dropout): Dropout(p=0.1, inplace=False)\n    (linear2): Linear(in_features=2048, out_features=64, bias=True)\n    (norm1): LayerNorm((64,), eps=1e-05, elementwise_affine=True)\n    (norm2): LayerNorm((64,), eps=1e-05, elementwise_affine=True)\n    (dropout1): Dropout(p=0.1, inplace=False)\n    (dropout2): Dropout(p=0.1, inplace=False)\n  )\n  (normalization_layer): BatchNorm1d(2, eps=1e-05, momentum=0.1, affine=True, track_running_stats=True)\n  (transformer_encoder): TransformerEncoder(\n    (layers): ModuleList(\n      (0-5): 6 x TransformerEncoderLayer(\n        (self_attn): MultiheadAttention(\n          (out_proj): NonDynamicallyQuantizableLinear(in_features=64, out_features=64, bias=True)\n        )\n        (linear1): Linear(in_features=64, out_features=2048, bias=True)\n        (dropout): Dropout(p=0.1, inplace=False)\n        (linear2): Linear(in_features=2048, out_features=64, bias=True)\n        (norm1): LayerNorm((64,), eps=1e-05, elementwise_affine=True)\n        (norm2): LayerNorm((64,), eps=1e-05, elementwise_affine=True)\n        (dropout1): Dropout(p=0.1, inplace=False)\n        (dropout2): Dropout(p=0.1, inplace=False)\n      )\n    )\n    (norm): BatchNorm1d(2, eps=1e-05, momentum=0.1, affine=True, track_running_stats=True)\n  )\n  (flatten_layer): Flatten(start_dim=1, end_dim=-1)\n  (linear_layer): Linear(in_features=128, out_features=64, bias=True)\n)"
    ]
}